…
    "post_id": 61060736,
    "title": "How to interpret model.summary() output in CNN?",
    "body": "<p>I am new to deep learning and CNNs. If a CNN has been created as shown in the screenshot, then how can one explain the outputs as described by model.summary(). I am not able to understand the output shapes of different layers.</p>\n<p>Model summary:</p>\n<pre>Model: \"sequential_3\"\n_________________________________________________________________\nLayer (type)                 Output Shape              Param #   \n=================================================================\nconv2d_14 (Conv2D)           (None, 29, 29, 32)        1568      \n_________________________________________________________________\nmax_pooling2d_6 (MaxPooling2 (None, 14, 14, 32)        0         \n_________________________________________________________________\nconv2d_15 (Conv2D)           (None, 11, 11, 32)        16416     \n_________________________________________________________________\nmax_pooling2d_7 (MaxPooling2 (None, 5, 5, 32)          0         \n_________________________________________________________________\nflatten_3 (Flatten)          (None, 800)               0         \n_________________________________________________________________\ndense_6 (Dense)              (None, 32)                25632     \n_________________________________________________________________\ndense_7 (Dense)              (None, 10)                330       \n=================================================================\nTotal params: 43,946\nTrainable params: 43,946\nNon-trainable params: 0</pre>",
    "image_link": "https://i.sstatic.net/ajgtn.jpg",
    "link": "https://stackoverflow.com/questions/61060736/how-to-interpret-model-summary-output-in-cnn",
    "creation_date": "2020-04-06 09:17:10",
    "closed_date": "1969-12-31 19:00:00",
    "closed_reason": "Not specified",
…
